AI/ch2_parameters.npz (npz, 7127 bytes, 4 tensors)

W_h (column-major) f4 [128, 2]
-0.70329744 0.39473122 -0.27404094 -0.5377038 -0.44677615 0.04454896 -0.4646782 0.44777372
-0.38753292 -0.14747591 0.055676468 0.19799067 0.09882152 0.0430051 0.06938521 -0.29844955
1.387588 -0.21277405 0.18108247 -0.18177329 0.88510704 -0.5854156 -0.41142523 -0.48626614
3.4203498 -0.12712546 0.41567007 0.38619944 -0.32286116 0.04916249 -0.43104863 0.23166388
-0.47581297 -0.44863766 -0.20999004 -0.15698218 -0.45522138 -0.35429356 -0.24336493 2.4130232
0.11237216 0.08185384 -0.38318616 -0.44295427 -0.18035324 0.06983762 0.9783539 0.30770466
0.20339736 -0.32870418 -0.24668047 0.43596306 -0.4447824 -0.24967496 -0.22051193 -0.30892888
-0.4355562 0.0005415227 0.017842911 -0.09656473 -0.5850539 0.25384995 -0.5364119 0.10690102
0.11425626 -0.288424 -0.2258524 0.12807901 -0.58832204 0.33874643 -0.16030595 0.8143265
-0.13211827 0.41909742 2.6363401 -0.4258852 0.69374603 2.2629433 0.41004753 0.60576993
0.19745268 0.15500899 2.6358526 0.006255328 0.37053046 0.1641292 1.0527164 0.108378686
0.7112387 -0.3907797 -0.22644651 0.9039031 0.6490378 0.5059576 0.3766944 0.2646913
-0.4149496 -0.26521426 -0.36955515 0.20001966 0.8533486 0.34110692 -0.40890172 -0.34433588
0.33555606 0.70442027 -0.3432236 -0.6708798 -0.31546804 -0.28399476 4.128214 0.06637083
1.3174802 0.544808 0.36743602 -0.0027252946 -0.12523638 0.62728375 0.6704582 0.92277443
0.10686062 -0.8713211 0.13096735 -0.41593736 -0.3976088 2.4691122 0.40744898 0.0791611
0.12154905 0.38138518 0.409665 -0.06669159 -0.007920984 -0.34088728 0.16760215 -0.03365849
3.3774798 0.5609358 -0.49762422 0.28824258 -0.42316973 -0.45313716 -0.48715326 0.4317823
0.33663404 -0.42459336 -0.5078276 0.7003515 -0.8194452 -0.02724527 -0.0706652 0.17616159
-0.25883666 0.32127428 0.36369088 0.24797866 -0.38919052 -0.4265978 -0.25491992 0.22717756
0.0024226506 -0.12498085 0.55113363 0.4304999 -0.13970661 0.77445835 0.23621504 -0.025322681
-0.4185595 -0.5187312 -0.24149105 0.009911906 0.39014992 -0.35790077 -0.2158416 0.11447592
-0.34029856 0.45943692 0.42409915 0.2585953 -0.17622598 0.42753842 0.29600295 -0.18740699
-0.13689153 0.872745 -0.47115955 -0.33966744 -0.32340983 -0.44445696 -0.23615031 -0.3649311
-0.43765372 0.41036007 0.504906 -0.3597357 1.0262526 0.40322417 0.4071144 -0.16133326
0.4262039 0.19438824 2.1586282 -0.07446343 -0.13266553 1.9907527 0.34796223 -0.08120014
-0.38327965 -0.42788637 0.6409662 -0.3858067 0.10029267 -0.438997 -0.97657496 -0.85331666
-0.10923876 -0.21172734 0.5559111 -0.8024477 -0.14460425 0.26098913 0.31197542 -1.2792495
-0.0035773746 0.40736523 0.072498925 -0.44713795 -0.86206716 -0.5554547 -0.21157369 0.3871659
0.13185245 0.64028054 -0.33987853 0.46568525 -0.29558617 0.32185468 -0.32115236 -0.46859843
0.28381264 0.26011115 0.1894792 -0.46910542 0.4113864 -1.266824 1.0264828 -0.8655949
-0.4594361 0.87105566 -0.36978358 -0.15122727 -0.288298 3.6236916 0.20655295 -0.5082575
00000000: 4d0b 34bf 361a ca3e 184f 8cbe f5a6 09bf
00000010: d8bf e4be f878 363d 4dea edbe 9942 e53e
00000020: b76a c6be ed03 17be 020d 643d 11be 4a3e
00000030: f062 ca3d 1e26 303d d519 8e3d 61ce 98be
00000040: 7c9c b13f 71e1 59be af6d 393e c722 3abe
00000050: 6096 623f ccdd 15bf 54a6 d2be e0f7 f8be
00000060: 03e7 5a40 2d2d 02be b5d2 d43e efbb c53e
00000070: 0f4e a5be 9b5e 493d 68b2 dcbe 4c39 6d3e
00000080: c29d f3be d6b3 e5be a107 57be f0bf 20be
00000090: c712 e9be f765 b5be a834 79be f96e 1a40
000000a0: 6023 e63d fca2 a73d fa30 c4be e7ca e2be
000000b0: 85ae 38be 0707 8f3d 6775 7a3f 778b 9d3e
000000c0: 6647 503e ea4b a8be ce99 7cbe 8d36 df3e
000000d0: 85ba e3be cbaa 7fbe e1cd 61be ed2b 9ebe
000000e0: 3901 dfbe f9f4 0d3a 4c2b 923c bbc3 c5bd
000000f0: 18c6 15bf 9ff8 813e 4a52 09bf ecee da3d
00000100: 30ff e93d 4fac 93be da45 67be 2527 033e
00000110: 469c 16bf 2c70 ad3e 3e27 24be b477 503f
00000120: 034a 07be f093 d63e ccb9 2840 a00d dabe
00000130: 5799 313f 10d4 1040 c0f1 d13e bd13 1b3f
00000140: 0931 4a3e adba 1e3e cfb1 2840 7ff9 cc3b
00000150: 2bb6 bd3e 7c11 283e 69bf 863f a5f5 dd3d
00000160: bd13 363f 4714 c8be 98e1 67be 3266 673f
00000170: 5727 263f 7086 013f 17de c03e 9e85 873e
00000180: 4674 d4be 2aca 87be 5536 bdbe f4d1 4c3e
00000190: 0e75 5a3f 91a5 ae3e 915b d1be cb4c b0be
000001a0: 01ce ab3e e354 343f 01bb afbe c7be 2bbf
000001b0: 0785 a1be c367 91be 541a 8440 6eed 873d
000001c0: 31a3 a83f 8978 0b3f 9320 bc3e db9a 32bb
000001d0: f73d 00be ab95 203f 26a3 2b3f f23a 6c3f
000001e0: bed9 da3d e60e 5fbf 4e1c 063e bef5 d4be
000001f0: 6193 cbbe ef05 1e40 279d d03e 371f a23d
00000200: b5ee f83d eb44 c33e 9cbf d13e 9a95 88bd
00000210: 04c7 01bc c788 aebe e69f 2b3e 7cdd 09bd
00000220: a128 5840 7d99 0f3f 9ac8 febe 8894 933e
00000230: b4a9 d8be 9801 e8be 276c f9be 9212 dd3e
00000240: 4c5b ac3e 4d64 d9be fd00 02bf 3c4a 333f
00000250: 29c7 51bf 7931 dfbc ebb8 90bd b463 343e
00000260: 3d86 84be 107e a43e b135 ba3e 1eee 7d3e
00000270: fb43 c7be 076b dabe dd84 82be 3ca1 683e
00000280: 55c5 1e3b f6f5 ffbd 1817 0d3f 7c6a dc3e
00000290: 400f 0fbe e742 463f 5be2 713e 8371 cfbc
000002a0: 6e4d d6be 91cb 04bf 6e49 77be 8c65 223c
000002b0: bbc1 c73e c53e b7be 9505 5dbe 5a72 ea3d
000002c0: 9d3b aebe 513b eb3e 8623 d93e 9a66 843e
000002d0: 9574 34be 51e6 da3e b38d 973e 9ee7 3fbe
000002e0: 4b2d 0cbe 376c 5f3f d33b f1be e4e8 adbe
000002f0: f995 a5be dd8f e3be 63d1 71be 40d8 babe
00000300: 2614 e0be b71a d23e 8541 013f 472f b8be
00000310: 3f5c 833f 6673 ce3e 4c71 d03e 8c34 25be
00000320: 6637 da3e b60d 473e f726 0a40 4880 98bd
00000330: 79d9 07be fcd0 fe3f 1b28 b23e 424c a6bd
00000340: 3b3d c4be ec13 dbbe 5c16 243f 7588 c5be
00000350: 3e66 cd3d 37c4 e0be d100 7abf f672 5abf
00000360: 92b8 dfbd 0dcf 58be 3150 0e3f 366d 4dbf
00000370: 2313 14be 5ea0 853e 3ebb 9f3e 73be a3bf
00000380: 6372 6abb 2d92 d03e 517a 943d 44ef e4be
00000390: 6fb0 5cbf 4732 0ebf c6a6 58be 9c3a c63e
000003a0: 5404 073e 6de9 233f 8f04 aebe 4c6e ee3e
000003b0: 1257 97be 23ca a43e 156e a4be 22ec efbe
000003c0: e44f 913e 4a2d 853e d606 423e 962e f0be
000003d0: 3da1 d23e 4a27 a2bf ca63 833f a197 5dbf
000003e0: 353b ebbe 81fd 5e3f 4654 bdbe 52db 1abe
000003f0: cc9b 93be 90ea 6740 9e82 533e 2a1d 02bf

b_h f4 [128]
-0.38209248 -1.2976213 0.65953016 1.4682533 0.85985833 0.5582523 0.5089055 0.012240335
0.111322924 0.49016392 1.5574079 -0.506745 1.6454759 1.5100164 1.2620523 0.37132528
0.7720439 1.2739542 -0.6749695 -0.6558817 0.4120725 1.1515087 0.20425549 -0.46780533
-0.31193233 -0.6639425 -0.97729117 -1.2250086 1.4668485 1.1832807 1.3967437 -0.69553626
1.0262117 1.0275726 1.415938 0.6222385 1.0571539 -0.1350683 0.09407842 0.38748354
-0.010921839 0.9635047 1.2050003 0.8336049 0.09949727 0.74660724 0.4508366 -0.17953894
-0.081380874 1.0789168 0.36024708 -0.67663544 0.8719293 0.9198466 0.01997711 0.24556361
0.9380055 1.3618953 1.5407254 0.93865025 0.71031016 0.81209934 0.72413945 -0.048596855
1.0960706 0.43835086 1.3362402 0.06658702 0.82370466 -1.0704492 -0.76364195 0.4662069
-0.51257235 -0.33164594 0.36344087 0.6886658 -0.31665614 0.36359146 -0.93666553 0.02743401
0.65935117 1.278614 0.50173223 0.89691013 -0.35179397 1.5453521 0.6248544 1.2013633
0.505555 1.213101 1.2715372 0.19928847 0.28134096 -1.0186294 -1.002236 -0.9936108
0.060871962 0.52613866 0.65768886 0.96944267 0.6999426 0.9885613 1.106643 0.88294166
-0.526563 -0.30480593 1.7114633 1.3775916 1.0229499 0.46825317 -0.82019424 1.5426122
0.7067101 -0.298438 -0.557017 1.4281315 -0.76708186 0.5535244 0.6244598 0.5548754
1.3293383 0.53787446 -0.33466488 1.0641135 1.5875286 0.07309367 -1.1798708 1.9582897
00000000: a0a1 c3be 7418 a6bf f8d6 283f b9ef bb3f
00000010: ad1f 5c3f 9fe9 0e3f a147 023f b08b 483c
00000020: 46fd e33d c4f6 fa3e 2459 c73f 0aba 01bf
00000030: f49e d23f 3848 c13f ee8a a13f 591e be3e
00000040: aba4 453f ee10 a33f cdca 2cbf dde7 27bf
00000050: 2bfb d23e a364 933f 5a28 513e 2e84 efbe
00000060: 98b5 9fbe 23f8 29bf c12f 7abf 15cd 9cbf
00000070: b1c1 bb3f be75 973f 7fc8 b23f aa0e 32bf
00000080: e85a 833f 8087 833f 753d b53f 064b 1f3f
00000090: d250 873f 584f 0abe 30ac c03d 3e64 c63e
000000a0: 83f1 32bc 3ea8 763f 733d 9a3f 2167 553f
000000b0: 3ac5 cb3d a721 3f3f 0ed4 e63e 0ed9 37be
000000c0: 04ab a6bd f219 8a3f 4e72 b83e fb37 2dbf
000000d0: c236 5f3f 117b 6b3f 09a7 a33c 0775 7b3e
000000e0: 2121 703f 9652 ae3f 7d36 c53f 624b 703f
000000f0: e3d6 353f bee5 4f3f 3461 393f 7f0d 47bd
00000100: 0b4c 8c3f 866f e03e eb09 ab3f c75e 883d
00000110: 4fde 523f 7b04 89bf 0a7e 43bf acb2 ee3e
00000120: f137 03bf 7fcd a9be ec14 ba3e 674c 303f
00000130: c120 a2be a928 ba3e 50c9 6fbf 4abd e03c
00000140: 3dcb 283f a0a9 a33f 8671 003f e79b 653f
00000150: 571e b4be 19ce c53f 75f6 1f3f 46c6 993f
00000160: 0d6c 013f e546 9b3f bbc1 a23f 4712 4c3e
00000170: ec0b 903e 7362 82bf 4549 80bf 475d 7ebf
00000180: e154 793d 06b1 063f 4c5e 283f 652d 783f
00000190: 702f 333f 5a12 7d3f 7aa6 8d3f 7708 623f
000001a0: d5cc 06bf 860f 9cbe 3b11 db3f ec54 b03f
000001b0: 06f0 823f e1be ef3e 40f8 51bf 5174 c53f
000001c0: f4ea 343f decc 98be ab98 0ebf 03cd b63f
000001d0: 7a5f 44bf c6b3 0d3f 99dc 1f3f 500c 0e3f
000001e0: c227 aa3f 24b2 093f 3259 abbe df34 883f
000001f0: 2334 cb3f 22b2 953d 0206 97bf 3da9 fa3f

W_o (column-major) f4 [10, 128]
-0.2711758 -0.57351524 0.2170644 0.45950514 -1.8335084 -1.3654991 0.26833484 1.3039033
0.7721282 -0.5361853 -0.15863912 -0.80497426 -0.35020202 0.26246917 0.25579336 0.15648675
0.35351312 -1.4961436 -1.6371019 0.40288576 0.075872086 -0.25800955 0.021789402 0.25288302
-1.884765 -0.41638413 0.3228266 -0.31986758 0.7886618 0.0034014692 0.039810207 0.32972994
0.4598708 0.27107558 -2.2921555 -0.78789943 0.037410244 0.3249065 0.59714895 -0.97080517
-0.11064562 0.15419263 0.007170181 0.4167217 -2.080777 -0.40505904 0.1431517 0.45458096
0.81633455 -0.63208336 -0.22844103 0.091543674 0.2931679 -0.7197492 0.6199036 -0.21924248
-0.72815275 0.9955592 -2.502061 -1.1752349 -0.18722415 -0.29483858 0.13587958 0.366799
-2.3251295 -1.2448837 0.16173166 0.75126356 0.6880382 -0.5940837 0.15060528 -0.1574754
0.18415478 -0.12591037 0.56838334 0.14796646 0.036620043 -2.2862165 -3.6176405 0.44054982
0.30201417 0.4624805 -0.5101452 0.15883502 -2.0002182 -1.5188475 0.32228848 -2.6363356
0.30330473 0.36220244 0.06471861 -0.10371891 -0.27111623 0.04780353 -1.0156022 -0.16576841
0.01595681 -2.2580748 0.48426753 0.30803433 0.14384656 0.49808437 0.3171836 -1.0114441
0.67712474 0.16540636 -0.9992663 0.75652903 -3.4410017 -0.76088476 -0.17321838 -0.52538025
0.002651926 0.33283952 0.21325092 -0.02518299 0.27649784 -2.0836296 -0.8786453 0.28727084
0.07793445 0.23992328 0.55692047 -0.824818 0.32367417 0.07906642 -1.139506 0.66981304
-3.193177 -1.1317462 0.002149628 0.4785268 0.51091856 -1.0959483 0.5570063 -0.015465329
-1.1037816 0.7784109 -2.7859833 -1.1528609 0.10142238 0.42313915 0.102634795 -1.1070389
0.66306865 0.16976488 -1.111236 0.78200424 -3.0933535 -0.89543957 -0.031129675 -0.21166614
0.17626189 0.23092274 -1.6346787 -0.46136004 0.385274 -0.042344976 0.726608 -0.03940108
0.15736006 -0.07333075 -0.15224878 -0.4320061 0.13249955 0.2476086 0.17799772 -2.5877159
-5.7141986 0.21125068 -0.26363686 0.5143014 0.41292605 -0.6559603 -0.24934354 0.053944957
-0.9700916 0.51030564 0.5200133 -1.5179278 -0.39998686 -0.2053199 -0.011906533 -0.7470718
1.063566 0.016969051 -1.2737113 1.8891021 -2.6203008 -0.64359254 0.25104693 -0.632728
-0.048419375 0.08948267 -1.412583 -0.6519749 0.1633052 -2.3344386 0.5270692 0.26113763
-0.34998122 0.062116183 -0.4288202 0.18328825 0.4485391 0.50339586 -2.2342808 -0.82924193
-1.7460716 0.45916033 0.071656786 -0.049617793 0.3431459 0.4555417 -2.195387 -1.2614816
-0.0040832753 0.43905032 0.4677696 -1.0821128 0.019910911 -0.003579469 -0.13665533 0.09755972
-0.92908204 0.030270865 0.09000012 0.70165896 1.1423922 -0.72392374 -0.27011833 -0.4366348
0.039560787 0.5539519 -2.0091188 -0.8696731 0.48851418 1.392469 0.9942489 -0.25091362
-0.56733596 0.22693628 -0.68561536 -0.22836033 0.344271 0.07778724 0.7862352 -0.9900564
-0.52496827 0.44593525 -0.1611071 -0.48924634 -0.28454936 0.2512031 -1.1237516 -0.07556786
00000000: 8ed7 8abe e5d1 12bf 2146 5e3e 4244 eb3e
00000010: 67b0 eabf adc8 aebf 2f63 893e 4ee6 a63f
00000020: 32aa 453f 7143 09bf 4b72 22be cb12 4ebf
00000030: ae4d b3be 5c62 863e 59f7 823e 103e 203e
00000040: acff b43e a281 bfbf 8e8c d1bf 0b47 ce3e
00000050: d362 9b3d d419 84be b07f b23c e279 813e
00000060: fb3f f1bf 4d30 d5be 8749 a53e afc5 a3be
00000070: bde5 493f 2feb 5e3b 0710 233d 5dd2 a83e
00000080: 2f74 eb3e 6bca 8a3e adb2 12c0 c7b3 49bf
00000090: 7c3b 193d 255a a63e c1de 183f b086 78bf
000000a0: 2c9a e2bd ace4 1d3e d6f3 ea3b 8c5c d53e
000000b0: 732b 05c0 e663 cfbe 5c96 123e d6be e83e
000000c0: 4dfb 503f 37d0 21bf 72ec 69be 407b bb3d
000000d0: 1a1a 963e 7c41 38bf 01b2 1e3f 1a81 60be
000000e0: 3868 3abf f8dc 7e3f c421 20c0 196e 96bf
000000f0: b0b7 3fbe 15f5 96be 0424 0b3e 14cd bb3e
00000100: ecce 14c0 5958 9fbf fc9c 253e cf52 403f
00000110: 4523 303f df15 18bf 4538 1a3e 3b41 21be
00000120: 1293 3c3e a6ee 00be 9281 113f 8584 173e
00000130: e6fe 153d 5f51 12c0 6c87 67c0 bf8f e13e
00000140: 9aa1 9a3e 3eca ec3e e098 02bf a6a5 223e
00000150: 9303 00c0 9869 c2bf ff02 a53e b9b9 28c0
00000160: c24a 9b3e 9972 b93e 318b 843d 946a d4bd
00000170: bfcf 8abe a2cd 433d 41ff 81bf 32bf 29be
00000180: dbb7 823c 4c84 10c0 eaf1 f73e adb6 9d3e
00000190: 834c 133e ea04 ff3e e465 a23e 0077 81bf
000001a0: 0c58 2d3f 4960 293e ebcf 7fbf e3ab 413f
000001b0: 5f39 5cc0 58c9 42bf 2960 31be 527f 06bf
000001c0: efcb 2d3b f169 aa3e 735e 5a3e 8f4c cebc
000001d0: 2091 8d3e 305a 05c0 e6ee 60bf 2a15 933e
000001e0: 199c 9f3d 73ae 753e 5792 0e3f 4627 53bf
000001f0: 9fb8 a53e 93ed a13d 55db 91bf de78 2b3f
00000200: 035d 4cc0 0fdd 90bf c6e0 0c3b 7701 f53e
00000210: 8fcb 023f 0948 8cbf f797 0e3f 4b62 7dbc
00000220: b748 8dbf f045 473f 8d4d 32c0 f290 93bf
00000230: 89b6 cf3d b2a5 d83e 3132 d23d 73b3 8dbf
00000240: debe 293f d8d6 2d3e fb3c 8ebf 6e31 483f
00000250: 81f9 45c0 873b 65bf a903 ffbc 02bf 58be
00000260: ff7d 343e 0377 6c3e 273d d1bf 6237 ecbe
00000270: a242 c53e ed71 2dbd fb02 3a3f 0763 21bd
00000280: ff22 213e 6f2e 96bd 1be7 1bbe e72f ddbe
00000290: f6ad 073e 1c8d 7d3e 0945 363e 239d 25c0
000002a0: b7da b6c0 1952 583e 69fb 86be 42a9 033f
000002b0: 0b6b d33e 04ed 27bf ea53 7fbe 63f5 5c3d
000002c0: ec57 78bf 64a3 023f 971f 053f 754b c2bf
000002d0: 14cb ccbe 613f 52be 9e13 43bc 1940 3fbf
000002e0: ee22 883f ae02 8b3c f908 a3bf 19ce f13f
000002f0: 02b3 27c0 7bc2 24bf 3989 803e 76fa 21bf
00000300: 6553 46bd b142 b73d 85cf b4bf d4e7 26bf
00000310: 7a39 273e 7167 15c0 02ee 063f d5b3 853e
00000320: bd30 b3be 8a6d 7e3d 528e dbbe eaaf 3b3e
00000330: eba6 e53e 8dde 003f 75fe 0ec0 3349 54bf
00000340: 467f dfbf 1017 eb3e cbc0 923d 073c 4bbd
00000350: d2b0 af3e c33c e93e 3881 0cc0 3b78 a1bf
00000360: ffcc 85bb 34cb e03e 7f7f ef3e ac82 8abf
00000370: 351c a33c 8695 6abb 60ef 0bbe 64cd c73d
00000380: 52d8 6dbf 9bfa f73c fc51 b83d ec9f 333f
00000390: e839 923f 1153 39bf f34c 8abe 998e dfbe
000003a0: 7e0a 223d cbcf 0d3f 6795 00c0 e5a2 5ebf
000003b0: 881e fa3e 6d3c b23f 1987 7e3f c077 80be
000003c0: ee3c 11bf fc61 683e 7d84 2fbf 4ad7 69be
000003d0: 4a44 b03e eb4e 9f3d b646 493f 5674 7dbf
000003e0: 5264 06bf a051 e43e 42f9 24be 7f7e fabe
000003f0: 74b0 91be b19d 803e 18d7 8fbf 52c3 9abd

b_o f4 [10]
-0.041065805 -0.14257489 0.057460967 0.04799573 0.048893858 -0.013143131 0.047162507 -0.006588523
0.20281209 0.035095863
00000000: 9e34 28bd 27ff 11be 315c 6b3d 2c97 443d
00000010: ed44 483d 4956 57bc 792d 413d 89e4 d7bb
00000020: f9ad 4f3e aec0 0f3d
